tenants/ai-example/multi-model-serving/models/frauddetectionmodel.onnx (onnx, 12970 bytes, 11 tensors)

sequential/dense_3/MatMul/ReadVariableOp:0 f4 [32, 1]
0	0xbf2f6bab	-0.68523663
1	0xbf06d8d0	-0.5267458
2	0x3f1d5976	0.6146463
3	0x3e84641b	0.25857624
4	0xbd873c87	-0.066033415
5	0xbf7716e0	-0.9651928
6	0xbdc87256	-0.09787433
7	0x3f235b07	0.6381077
8	0xbf5f83e0	-0.873106
9	0x3f17796c	0.5916965
10	0x3e5b5650	0.21419644
11	0xbd7c77aa	-0.061637558
12	0xbe9b80e0	-0.3037176
13	0x3f286c7b	0.6579053
14	0xbf828592	-1.0197012
15	0x3e67dbf9	0.22642507
16	0xbf8a55ce	-1.0807436
17	0x3ec04ac2	0.37557036
18	0x3e941720	0.28923893
19	0x3f7876eb	0.97056454
20	0xbf164c92	-0.5871059
21	0xbf29b944	-0.6629832
22	0x3e34275c	0.1759314
23	0xbf2bc0d9	-0.6709114
24	0xbf45f591	-0.7732783
25	0x3eb2c7b6	0.34917992
26	0x3f20c490	0.6279993
27	0xbf3fc90e	-0.7491616
28	0x3f09aa6d	0.53775674
29	0x3efd2cd9	0.4944828
30	0x3ebdd571	0.37076905
31	0xbea73135	-0.3265473

sequential/dense_2/MatMul/ReadVariableOp:0 f4 [32, 32]
0	0x3ef47c5a	0.47751123
1	0x3eedf16c	0.46473253
2	0x3d27025b	0.04077373
3	0xbea18318	-0.3154533
4	0xbde82824	-0.11335781
5	0x3e3f599a	0.18686524
6	0x3ef0f651	0.47062925
7	0x3b5f8eb8	0.0034112167
8	0x3d385873	0.045006227
9	0x3e2cda36	0.16880116
10	0xbea5ac58	-0.3235805
11	0xbea2691a	-0.3172081
12	0x3f121c0e	0.5707406
13	0x3e097205	0.13422401
14	0x3e209193	0.15680532
15	0x3d89ac0d	0.06722269
16	0x3cf83b6b	0.03030177
17	0xbd4553fd	-0.0481758
18	0xbdba7326	-0.09103994
19	0x3bec6d51	0.00721518
20	0x3d8d905a	0.069122985
21	0x3e32a6a4	0.17446381
22	0x3dbebb32	0.093130484
23	0x3e3cd587	0.18440829
24	0x3e60c71d	0.21950956
25	0x3dc1f5cf	0.094707124
26	0x3d7326ca	0.059363164
27	0x3e906be4	0.28207314
28	0xbe5c1695	-0.2149299
29	0xbd8e8692	-0.06959261
30	0xbce0fdef	-0.027464835
31	0xbe368cbf	-0.17827128
32	0x3ea38fae	0.31945556
33	0x3d33a699	0.04386005
34	0x3ecadffd	0.39624014
35	0x3e88b590	0.2670102
36	0x3ebc17ba	0.36736852
37	0x3e49ff07	0.19726191
38	0x3d5d8b6e	0.05408805
39	0x3e5c9c0a	0.21543899
40	0x3daf90e3	0.08572557
41	0x3edd7462	0.43252856
42	0x3d9cb1f8	0.07651132
43	0xbe9da56a	-0.30790263
44	0xbe2b09b6	-0.16702923
45	0xbd6df83d	-0.058098067
46	0x3c47d985	0.012197857
47	0x3d66b8f8	0.056328744
48	0x3f01dcc4	0.50727487
49	0x3eece3ce	0.4626755
50	0x3c16caf1	0.009203658
51	0x3e026c67	0.12736665
52	0x3e3ecfa2	0.18633893
53	0x3de5caba	0.11220308
54	0x3ee05174	0.43812144
55	0x3e50fed1	0.20409705
56	0x3e12c918	0.14334524
57	0x3f110a81	0.5665665
58	0x3e3ae61e	0.18251845
59	0x3d7e414c	0.06207399
60	0x3ea1deb6	0.31615227
61	0x3daa1765	0.083052434
62	0x3d967506	0.07346539
63	0xbf1146c2	-0.5674859
64	0xbe919051	-0.28430417
65	0xbebcaaaa	-0.36848956
66	0x3e0e16e9	0.13875927
67	0x3cbf0bbf	0.02332103
68	0x3e459995	0.19296868
69	0xbf394751	-0.72374445
70	0xbc22471d	-0.00990465
71	0x3d842807	0.06452947
72	0xbf0d34b5	-0.5515855
73	0x3ea51f2d	0.32250348
74	0x3e9946a3	0.29936704
75	0x3e651cbe	0.22374246
76	0xbef3ef14	-0.4764334
77	0x3e673c88	0.22581685
78	0xbefec1c9	-0.4975722
79	0x3ec3d25b	0.38246426
80	0xbe41a0a1	-0.18908931
81	0x3d0f3f34	0.034972385
82	0x3e05a564	0.13051373
83	0x3e050295	0.12989266
84	0xbe6f142e	-0.23347542
85	0xbf24b317	-0.6433577
86	0x3e11da0c	0.14243335
87	0xbf1843d6	-0.5947851
88	0xbebd66ec	-0.36992586
89	0x3ebcc0d6	0.36865872
90	0x3e7f32ff	0.24921797
91	0xbedc276e	-0.42998832
92	0xbb7a7882	-0.00382188
93	0x3d7f1dca	0.06228427
94	0x3e219684	0.15780073
95	0xbed0a64f	-0.40751883
96	0x3dbe4427	0.09290343
97	0xbe2e19d5	-0.17002042
98	0xbf28c897	-0.65931076
99	0xbeb715d0	-0.3575883
100	0x3ecb8e08	0.397568
101	0xbda12bfb	-0.07869717
102	0x3be047bb	0.0068444884
103	0xbf28f36f	-0.6599645
104	0xbd4b1d15	-0.04958828
105	0xbef8aa11	-0.4856725
106	0xbef4db9b	-0.47823796
107	0x3d02440d	0.03180318
108	0xbf104eaf	-0.5637006
109	0xbf44094c	-0.76576686
110	0x3e304e5c	0.17217392
111	0xbf36466b	-0.712012
112	0x3e970738	0.29497695
113	0xbed2966b	-0.41130385
114	0xbf144bed	-0.57928354
115	0xbf18b3e6	-0.59649503
116	0xbc87a0e7	-0.016556216
117	0x3dfcaaf4	0.12337294
118	0xbe6a8fe5	-0.22906454
119	0x3d52c2e0	0.05145538
120	0xbeef91f5	-0.46791044
121	0xbcf910ff	-0.030403612
122	0xbf493d73	-0.7860939
123	0x3e159977	0.14609323
124	0xbdc209ce	-0.09474526
125	0xbd5e68de	-0.054299228
126	0xbed65b81	-0.41866687
127	0xbdca72e3	-0.09885194
128	0xbd1c087a	-0.03809402
129	0xbdee99c7	-0.116504245
130	0xbe290097	-0.16504131
131	0xbef52f4b	-0.47887644
132	0x3ea78a00	0.32722473
133	0xbdd74d4b	-0.10512789
134	0xbdb9f1b1	-0.09079302
135	0xbe6b9c2c	-0.23008794
136	0xbf40126e	-0.7502812
137	0xbe0bb1a3	-0.13641982
138	0xbe86f8ab	-0.26361594
139	0x3e3ef1e8	0.18646967
140	0xbf0849a5	-0.5323737
141	0xbea98133	-0.33106384
142	0xbe95d718	-0.29265666
143	0xbe9b5238	-0.30336165
144	0xbe793bc3	-0.24339204
145	0xbebd48bc	-0.36969554
146	0xbef82cde	-0.4847173
147	0xbe2d8091	-0.16943575
148	0xbef50e49	-0.4786246
149	0xbe831f6c	-0.2560991
150	0xbe42e739	-0.19033517
151	0xbeb05d52	-0.34446198
152	0xbcd196d7	-0.025584621
153	0xbe8a9059	-0.27063254
154	0xbe5690d9	-0.20953692
155	0xbf325117	-0.69654983
156	0xbe6a12e7	-0.22858773
157	0xbe9234f4	-0.28556025
158	0xbeee2827	-0.4651501
159	0x3d1089aa	0.035287537
160	0x3f3ece28	0.7453332
161	0xbe60ebf7	-0.21965013
162	0xbda2e065	-0.07952956
163	0x3eb06c33	0.3445755
164	0x3e02727e	0.12738988
165	0x3ee1233b	0.4397219
166	0x3ded7491	0.11594499
167	0x3e8ee60c	0.27909887
168	0x3eeaaa11	0.45832875
169	0xbe6094c8	-0.21931756
170	0xbe688917	-0.22708546
171	0xbc3fec0a	-0.011713991
172	0x3ef53fa8	0.47900128
173	0x3e299add	0.16562982
174	0x3e44945c	0.1919722
175	0x3d8f7f08	0.07006651
176	0xbd8943b1	-0.06702364
177	0x3e289093	0.164614
178	0xbdc9e2db	-0.09857722
179	0x3e0343cc	0.12818831
180	0x3f0c2b43	0.5475351
181	0x3f26f7e8	0.65222025
182	0x3d89f22f	0.06735646
183	0x3e1f0e5a	0.15532818
184	0x3ec5ffae	0.3867163
185	0xbdfeee7e	-0.124478325
186	0x3e01784d	0.12643547
187	0x3ef092f5	0.4698712
188	0xbdb9b14f	-0.09067022
189	0x3dba9f02	0.091123596
190	0xbe3e2e04	-0.18572241
191	0x3e49f885	0.19723709
192	0xbeb34afe	-0.35018152
193	0xbf2f2694	-0.6841824
194	0x3e07f208	0.13275921
195	0xbca2c152	-0.019867573
196	0x3e3c9bac	0.18418759
197	0xbe9f2ba1	-0.31087974
198	0xbeb649f6	-0.35603303
199	0x3d8db08d	0.0691844
200	0xbe63f6e9	-0.22262157
201	0x3e788b63	0.24271922
202	0x3e3b2190	0.18274522
203	0x3e5a0157	0.21289574
204	0xbeda8c6d	-0.4268526
205	0x3d329436	0.043598376
206	0xbe85bcdd	-0.26120654
207	0xbd16087b	-0.03662918
208	0xbdb47310	-0.08811009
209	0xbd8b7ba0	-0.06810689
210	0x3d3ec229	0.046571884
211	0x3d3e7be8	0.046504885
212	0xbd75637b	-0.059909325
213	0xbe23c55a	-0.15993252
214	0x3e302c49	0.17204393
215	0xbe9a281f	-0.30108735
216	0xbed9e355	-0.42556253
217	0x3d80dc76	0.062920496
218	0x3d199ef2	0.037505098
219	0xbe9c287f	-0.30499646
220	0x3cf82f5a	0.030296016
221	0xbd51dd83	-0.05123664
222	0x3c386c2d	0.01125626
223	0xbd920ab7	-0.0713095
224	0x3f117620	0.5682087
225	0x3ef12997	0.47102043
226	0x3de9b4d9	0.11411447
227	0x3ded0f3f	0.115751736
228	0x3e2007a3	0.15627913
229	0xbca0e9b9	-0.019642698
230	0x3e1643ac	0.14674252
231	0x3e51918e	0.20465681
232	0x3cd65fc4	0.026168711
233	0x3e219764	0.15780407
234	0x3d8eae2c	0.069668144
235	0x3eabc6e6	0.33550185
236	0x3e973df9	0.2953947
237	0x3d78fc1f	0.060787316
238	0x3c9a0415	0.018800775
239	0x3d0a2434	0.033725932
240	0xbda450ec	-0.08023247
241	0xbeae54d2	-0.34049088
242	0xbde8ee1e	-0.11373542
243	0xbe9117ed	-0.28338566
244	0x3e7e9e6b	0.24865119
245	0x3ea03c4a	0.31295997
246	0x3d5fadb8	0.05460903
247	0x3ea64967	0.32477877
248	0x3ed09121	0.40735725
249	0x3eb08285	0.34474578
250	0x3e82809e	0.25488752
251	0x3d4bfd42	0.049802072
252	0xbf5f8c7f	-0.87323755
253	0x3de36b3d	0.111044385
254	0xbda0e7bd	-0.078567006
255	0xbec84e0c	-0.39122045

sequential/dense_2/BiasAdd/ReadVariableOp:0 f4 [32]
0	0xbbbc6b86	-0.0057501225
1	0x3b8d185d	0.004305883
2	0xbb16cc60	-0.002301
3	0xbb628a02	-0.0034567122
4	0x3b5fa3e0	0.0034124777
5	0x3c0937ec	0.008375149
6	0x3a63be4f	0.0008687721
7	0x3b1e3d9a	0.0024145604
8	0xbaff8c46	-0.0019496761
9	0xbb471715	-0.0030378748
10	0xbad993a3	-0.0016599785
11	0x3a07f77c	0.00051867194
12	0x3b781001	0.0037851336
13	0xbbd95477	-0.0066323834
14	0x3c2cb6ea	0.010541657
15	0xbba34a72	-0.00498324
16	0xbae7dcd3	-0.0017689712
17	0xbb95bdd7	-0.00456975
18	0xbba1ea45	-0.004941257
19	0xbc230ab1	-0.0099512795
20	0x3b19b8f4	0.0023456188
21	0x3a8a7a0d	0.0010564938
22	0xb9e7b3bd	-0.0004419367
23	0x3bd802a9	0.006592114
24	0x3bce5f93	0.0062980144
25	0xbad666aa	-0.00163575
26	0xbb651de6	-0.0034960448
27	0x3c235c26	0.0099707
28	0xbb780cd1	-0.0037849436
29	0xbb61157c	-0.003434508
30	0xbbba47f0	-0.005684845
31	0xbaa0acfd	-0.0012258586

sequential/dense_1/MatMul/ReadVariableOp:0 f4 [32, 32]
0	0x3ecd36bc	0.40080822
1	0x3ec715ac	0.38883722
2	0xbe796895	-0.24356301
3	0xbe450ca1	-0.19243099
4	0xbe856adf	-0.260581
5	0x3cea7afe	0.0286231
6	0xbed83665	-0.42229
7	0x3ebfac21	0.3743601
8	0xbe8fcd04	-0.28086102
9	0x3dad7862	0.08470227
10	0xbd2d9010	-0.042373717
11	0xbdd8bf5e	-0.105833754
12	0x3c78457e	0.015153287
13	0x3e740c72	0.23832873
14	0xbca18086	-0.019714605
15	0xbe5f8265	-0.21827085
16	0x3e16c560	0.1472373
17	0x3e541522	0.20711187
18	0x3f2b7a00	0.6698303
19	0xbcb67386	-0.022271883
20	0xbf255b36	-0.645923
21	0xbcd7f778	-0.02636312
22	0xbecf406f	-0.40478846
23	0x3f377ac7	0.7167172
24	0x3e9806c2	0.29692656
25	0xbd44afc9	-0.048019204
26	0x3dc5f6aa	0.09666188
27	0xbdcabdca	-0.09899481
28	0x3f24921e	0.6428546
29	0x3d828a93	0.06374087
30	0x3e9b5b49	0.30343083
31	0x3ebc6752	0.36797577
32	0x3e2783a3	0.16358809
33	0xbb3f088f	-0.0029149388
34	0x3e609151	0.21930434
35	0xbe1ec484	-0.15504652
36	0x3e144492	0.14479282
37	0xbdcbd712	-0.09953131
38	0xbe472a60	-0.19449759
39	0x3d709cee	0.05874341
40	0x3d20fe15	0.03930481
41	0xbd2bdcb7	-0.041958537
42	0xbcba06c4	-0.022708304
43	0xbe92f79b	-0.28704533
44	0x3ddfbf80	0.109251976
45	0xbee02c99	-0.43784025
46	0xbe70bcf2	-0.23509577
47	0x3ceec7ca	0.029148001
48	0xbd13cebe	-0.036085837
49	0xbf8cb830	-1.099371
50	0xbd000493	-0.031254362
51	0x3dd1f284	0.10251334
52	0x3cdf999b	0.027294924
53	0xbe1ba833	-0.15200882
54	0xbd9bb116	-0.07602136
55	0xbebdc3fd	-0.3706359
56	0xbf3af6a9	-0.73032624
57	0x3b3d21e6	0.0028859316
58	0xbed34dc6	-0.41270274
59	0x3b85d1fc	0.00408387
60	0x3df5f207	0.12009054
61	0x3e8b70dc	0.27234542
62	0x3e466eea	0.19378248
63	0xbcf1ebcf	-0.029531388
64	0x3e1282af	0.14307664
65	0x3d870f2d	0.065946914
66	0x3af5df4a	0.0018758562
67	0xbee97bdc	-0.4560231
68	0xbc8343b1	-0.016023489
69	0xbf216b25	-0.63054115
70	0xbe34d0f2	-0.17657831
71	0x3b5a5429	0.0033314324
72	0xbf3775df	-0.7166423
73	0xbe1f98a4	-0.15585572
74	0x3daa741b	0.083229266
75	0xbe76ce86	-0.2410222
76	0xbeefd644	-0.4684316
77	0xbe3bdb3d	-0.18345352
78	0xbce6146f	-0.028085915
79	0x3e24b434	0.16084367
80	0x3d43798f	0.04772335
81	0x3e1f71dc	0.15570778
82	0x3ea997ab	0.33123526
83	0x3eaec481	0.34134296
84	0x3bca9737	0.006182577
85	0xbf404da3	-0.75118464
86	0xbd08825a	-0.033327438
87	0xbcd66e80	-0.026175737
88	0x3e21acfb	0.15788643
89	0xbf160b31	-0.58610827
90	0x3f15c899	0.5850921
91	0x3e44aa0a	0.1920549
92	0x3cb0f3a5	0.021600554
93	0xbf070fea	-0.5275866
94	0x3eb1d140	0.34729958
95	0x3bfc3dad	0.007697782
96	0x3e6ca285	0.23108871
97	0xbeeb3d58	-0.4594524
98	0xbd47fe3f	-0.048826452
99	0xbcdd31f3	-0.027001357
100	0x3e31251b	0.17299311
101	0xbce11d02	-0.027479652
102	0xbcb46ce5	-0.022024581
103	0x3db46f72	0.08810319
104	0xbe0fae0c	-0.14031237
105	0xbb241699	-0.0025037883
106	0xbe075569	-0.13216175
107	0xbe6e6cb0	-0.23283648
108	0x3e2f6c09	0.17131056
109	0xbe47e4c6	-0.19520864
110	0xbf41e5af	-0.75741094
111	0xbd1c7c61	-0.038204554
112	0xbe6fa77f	-0.23403738
113	0xbeb8cc19	-0.36093214
114	0x3a02f0f6	0.00049950124
115	0xbd5dae75	-0.054121453
116	0xbebc7bf9	-0.36813334
117	0xbdc8cd7f	-0.0980482
118	0xbf32dc33	-0.6986725
119	0x3ef547a2	0.47906214
120	0xbed8989a	-0.42303926
121	0xbe06e7c6	-0.13174352
122	0x3eb2a82d	0.34893933
123	0xbc92ce4e	-0.01792064
124	0x3e6e2a01	0.2325821
125	0xbf016d6f	-0.5055761
126	0x3f0d81d1	0.5527621
127	0xbf448e0a	-0.76779234
128	0xbe09aedf	-0.13445614
129	0xbf514dc2	-0.81759274
130	0xbeb61b89	-0.35567883
131	0x3db565b2	0.088572875
132	0xbea5db42	-0.32393843
133	0x3e9ed7f7	0.31024143
134	0x3e410459	0.18849315
135	0x3e08431e	0.13306853
136	0x3e54b29b	0.20771258
137	0x3e0d22d7	0.13782822
138	0xbef4e60b	-0.4783176
139	0x3eb281c6	0.34864634
140	0xbea29668	-0.31755376
141	0x3e1aa74a	0.15102878
142	0x3f298444	0.66217446
143	0xbe331a30	-0.17490458
144	0xbf0a086c	-0.539191
145	0xbe58755f	-0.21138524
146	0x3e2c7dda	0.16844884
147	0x3e29473f	0.16531084
148	0x3e161206	0.14655313
149	0xbcd7cbb2	-0.026342247
150	0x3ea26596	0.3171813
151	0x3e61d8b3	0.2205532
152	0xbe4c4099	-0.19946517
153	0x3d2a0278	0.04150626
154	0xbe32c4c8	-0.17457879
155	0xbe1083d5	-0.1411279
156	0xbe9b5d5a	-0.3034466
157	0xbdc87e9b	-0.09789773
158	0x3d383292	0.044970103
159	0xbf154692	-0.58310807
160	0xbe8239f1	-0.2543483
161	0xbdc139c1	-0.09434844
162	0x3da58e67	0.08083802
163	0xbd42a147	-0.047517087
164	0x3cbcc3a2	0.023042504
165	0x3dd313b7	0.10306495
166	0x3e5e6a54	0.21720248
167	0xbe620ea8	-0.22075903
168	0xbe0e7e1d	-0.13915296
169	0xbeb38631	-0.35063317
170	0x3dd24dfd	0.10268781
171	0xbee50847	-0.44732878
172	0x3dbe0399	0.0927803
173	0xbee95ff5	-0.45581022
174	0xbef5dee5	-0.48021618
175	0x3ee1488b	0.44000658
176	0xbea08c32	-0.3135696
177	0xbd343fad	-0.04400604
178	0xbe8f9364	-0.28042138
179	0xbeb7fc33	-0.359346
180	0xbcc07ed4	-0.023497976
181	0xbd1dadda	-0.038495876
182	0xbe9b3aa1	-0.30318168
183	0xbf06937b	-0.5256879
184	0xbd6daf34	-0.058028415
185	0x3b0bea1c	0.0021349257
186	0xbe3ca251	-0.18421294
187	0xbc51a364	-0.012795303
188	0xbe3fede9	-0.187431
189	0x3eb4596e	0.3522448
190	0xbec1dffd	-0.37866202
191	0xbd6e06e7	-0.05811205
192	0xbe50ba98	-0.2038368
193	0x3cd7367d	0.0262711
194	0x3e206c28	0.15666258
195	0x3d37ef46	0.044905923
196	0xbef5691e	-0.4793176
197	0xbe4956d3	-0.19662027
198	0xbc5b3555	-0.013379415
199	0x3ccacaa1	0.024754824
200	0xbefcd079	-0.49377802
201	0x3c39c0fc	0.011337515
202	0x3d37a65b	0.044836383
203	0x3eaae7c6	0.33379954
204	0xbf123815	-0.57116824
205	0x3da19679	0.078900285
206	0x3ec53574	0.38517344
207	0xbe39d1d9	-0.18146457
208	0x3e69853e	0.22804734
209	0xbe2a52d0	-0.16633153
210	0x3d358e6b	0.044325273
211	0xbdf565de	-0.1198232
212	0xbd5d11c8	-0.053972036
213	0xbe5eb2b7	-0.21747862
214	0xbd9d8317	-0.07691019
215	0x3da3edcc	0.080043405
216	0xbed94e03	-0.4244233
217	0xbf5a9235	-0.85379344
218	0xbd8a9f2f	-0.06768643
219	0xbe6d2dcd	-0.23162003
220	0xbe364879	-0.17801084
221	0x3e6b1f2e	0.22961113
222	0xbd458914	-0.04822643
223	0x3b959ca3	0.0045657917
224	0xbd0efe14	-0.034910277
225	0xbed26006	-0.41088885
226	0xbe6e662e	-0.23281166
227	0xbd8958ba	-0.067063764
228	0x3e96248f	0.29324767
229	0xbf005cfa	-0.5014187
230	0xbde9e8eb	-0.11421379
231	0x3e8ecfb8	0.27892852
232	0x3da72449	0.08161218
233	0x3ebb2945	0.36554924
234	0xbdcc87a2	-0.099868074
235	0x3dd6e41a	0.10492726
236	0x3cd81c48	0.026380673
237	0xbdb2afe0	-0.08724952
238	0x3e9d6986	0.3074457
239	0x3c841ae6	0.016126107
240	0xbd89ce07	-0.0672875
241	0xbf304322	-0.68852437
242	0x3d23ba2c	0.03997247
243	0x3e08f540	0.13374805
244	0xbe85aa56	-0.26106519
245	0xbe32df02	-0.17467883
246	0x3e82e5de	0.25566
247	0xbf42b331	-0.76054674
248	0xbe69afc6	-0.22820958
249	0xbd19796d	-0.037469316
250	0xbe6db74c	-0.23214453
251	0xbc3350cf	-0.010944559
252	0x3e0828c5	0.13296802
253	0x3e863888	0.26215005
254	0x3dbe738f	0.09299385
255	0xbf0dbc9a	-0.5536591

sequential/dense_1/BiasAdd/ReadVariableOp:0 f4 [32]
0	0x3b99f222	0.004698054
1	0xbbd673b9	-0.006544557
2	0xba009119	-0.0004904434
3	0x3c2465fe	0.010034082
4	0x3c6146d3	0.013749796
5	0x3c39782b	0.011320154
6	0x3b35c322	0.0027734716
7	0xbbce0632	-0.0062873596
8	0x3c3d6d4c	0.011561703
9	0x3c453a6b	0.012037854
10	0x3bfe174b	0.0077542416
11	0x3a6d9a87	0.0009063859
12	0xba45623a	-0.00075295905
13	0x3bde1dd2	0.006778457
14	0xbbecd0eb	-0.0072270534
15	0xbb693cf2	-0.0035589305
16	0xbb8f29a9	-0.00436898
17	0xbb3952fc	-0.0028278222
18	0x3bf7ec2c	0.0075659957
19	0xbaa03d3c	-0.001222528
20	0xbc2f2ed4	-0.010692317
21	0xbcabcdcc	-0.020972155
22	0xbb6ea3e8	-0.0036413614
23	0xbbeccb7f	-0.007226407
24	0xbc8aadb7	-0.016928537
25	0xbcf66aab	-0.03008016
26	0x3bfa50a0	0.007639006
27	0x3c875329	0.016519146
28	0xbad8de05	-0.0016545659
29	0xba79ba62	-0.00095263694
30	0xba12a9c7	-0.0005594757
31	0x3ab43b3e	0.0013750566

sequential/dense/MatMul/ReadVariableOp:0 f4 [5, 32]
0	0x3e061206	0.13092813
1	0x3d93b5b0	0.072123885
2	0xbe8ef771	-0.27923158
3	0xbe2cdebc	-0.16881841
4	0x3d3cb841	0.046074156
5	0x3e75ea45	0.24015148
6	0x3eec837a	0.4619406
7	0xbe4a436e	-0.19752285
8	0x3d88d4ad	0.0668119
9	0xbcb131eb	-0.021630248
10	0xbce0799c	-0.027401738
11	0x3bc43948	0.005988274
12	0x3bce5dbe	0.006297796
13	0xbe887fea	-0.2666009
14	0xbe80fd9d	-0.25193492
15	0x3c8fbeb5	0.01754699
16	0x3eb3b4a1	0.35098746
17	0x3af70db4	0.0018848688
18	0xbea52e4b	-0.3226188
19	0x3ec5630b	0.38552126
20	0xbf032fce	-0.5124482
21	0x3e835499	0.2565048
22	0x3dfce27b	0.12347885
23	0xbe8bc9ac	-0.273023
24	0x3ef71f72	0.48266178
25	0x3ba18c4b	0.0049300543
26	0x3d6d493b	0.057931166
27	0xbeac63fd	-0.33670035
28	0x3e8b4aae	0.27205414
29	0x3e825bfc	0.25460804
30	0x3db4e7fc	0.0883331
31	0xbe2f2582	-0.17104152
32	0xbf02e990	-0.5113764
33	0xbe9f6c10	-0.31137133
34	0x3e9f943b	0.31167778
35	0xbeaa20a5	-0.3322803
36	0x3da00b0d	0.07814608
37	0x3e7f21f5	0.24915297
38	0xbbd7f80c	-0.006590849
39	0xbebc34b0	-0.36758947
40	0xbeb8212c	-0.35962808
41	0x3f1b2499	0.6060272
42	0x3f0d64b5	0.5523179
43	0xbecd4000	-0.4008789
44	0x3f24ee7d	0.64426404
45	0x3d8d6603	0.06904223
46	0xbef9329e	-0.4867143
47	0xbf0979f5	-0.53701717
48	0x3ee5fd4a	0.44919807
49	0x3f17be9d	0.5927523
50	0xbee41935	-0.4455048
51	0x3eeeb3dd	0.466216
52	0x3e0ad800	0.1355896
53	0x3ea2bbc2	0.31783873
54	0x3c7a33bf	0.015271126
55	0x3df22d19	0.11825008
56	0xbdf084b9	-0.11744065
57	0xbee4f890	-0.44720888
58	0xbeee858c	-0.46586263
59	0xbee3ed2e	-0.4451689
60	0x3e69fcc3	0.22850327
61	0x3e0b5b19	0.1360897
62	0x3db2d573	0.087321185
63	0x3e867bc5	0.26266304
64	0xbecebd02	-0.40378577
65	0xbe86779d	-0.26263133
66	0xbcb405a4	-0.021975346
67	0xbeb9b5c4	-0.3627149
68	0xbd8a5fe5	-0.06756572
69	0xbe0fae40	-0.14031315
70	0x3c2646e8	0.010148741
71	0xbe5acb49	-0.2136661
72	0xbe80993b	-0.25116906
73	0x3a6d2ffd	0.00090479833
74	0xbc78e09c	-0.01519027
75	0xbea085f6	-0.31352204
76	0xbc38e5cf	-0.011285259
77	0xbd06cae9	-0.032908354
78	0x3eb7baba	0.3588465
79	0x3ed06c08	0.4070742
80	0x3c0d231b	0.008614327
81	0x3b883e26	0.0041577993
82	0x3e6a13d2	0.22859123
83	0xbbdcb09f	-0.006734922
84	0xbdcbaa59	-0.099446006
85	0xbe5e8dbf	-0.2173376
86	0x3e739fce	0.2379143
87	0x3c73adc1	0.014872969
88	0x3cbef766	0.023311328
89	0x3eaf667d	0.3425788
90	0x3eceb7d2	0.4037462
91	0x3ecb59d3	0.39716968
92	0xbeb65758	-0.35613513
93	0x3e81d85d	0.25360385
94	0xbd43d2ef	-0.047808584
95	0xbcc55eea	-0.02409311
96	0x3e7484b7	0.23878752
97	0x3dc6bcfc	0.09704015
98	0x3e1e71ad	0.15473051
99	0xbe3b5aff	-0.18296431
100	0xbe332fc7	-0.17498694
101	0xbed9ffaf	-0.42577884
102	0x3e1cec24	0.15324455
103	0x3e77a47b	0.24183838
104	0xbdf2692f	-0.118364684
105	0x3da0f38f	0.07858955
106	0x3d83e0ed	0.064393856
107	0xbd8bc272	-0.06824197
108	0xbe8a1a92	-0.26973397
109	0x3ea5444d	0.32278672
110	0x3e741fcb	0.23840253
111	0xbe1a4435	-0.15065081
112	0xbec4a65e	-0.38408178
113	0x3bf86aa9	0.0075810743
114	0xbecb9c8e	-0.3976788
115	0xbe4f54ff	-0.20247267
116	0xbe3c7b20	-0.18406343
117	0xbecd5e42	-0.40110976
118	0x3ebff2fa	0.37490064
119	0x3ec3a727	0.38213465
120	0x3df623b5	0.12018529
121	0xbed3e090	-0.41382265
122	0x3ea79389	0.32729748
123	0x3eb63f72	0.3559528
124	0xbe7a8bc4	-0.24467379
125	0x3eab2d1c	0.33432853
126	0x3e8fca53	0.2808405
127	0x3e76f5b4	0.24117166
128	0xbe9c2693	-0.3049818
129	0x3e43c76c	0.19119042
130	0x3e3c51fa	0.18390647
131	0x3d3bf227	0.04588523
132	0xbeff9915	-0.4992148
133	0x3eb79e38	0.358629
134	0xbe0706ce	-0.1318619
135	0x3ed5480e	0.41656536
136	0x3ec1ae81	0.37828448
137	0xbc638e29	-0.013888874
138	0xbcd5dda1	-0.026106657
139	0xbea6a55c	-0.32548034
140	0xbd0b80f0	-0.03405851
141	0xbecc535e	-0.39907354
142	0x3ea947ae	0.330625
143	0x3e6fef0f	0.23431037
144	0xbc85c3d2	-0.016328726
145	0x3cd56408	0.026048675
146	0xbe95cfe6	-0.29260176
147	0xbced4fe3	-0.028968757
148	0x3e71ed3e	0.23625657
149	0x3e6c69a1	0.23087169
150	0xbef3ddf3	-0.4763027
151	0xbf099e68	-0.53757334
152	0xbdba97da	-0.09110995
153	0xbea35c44	-0.3190633
154	0x3daeca28	0.08534652
155	0xba83a000	-0.001004219
156	0xbe19a8ea	-0.15005842
157	0xbf004fa3	-0.50121516
158	0xbf032bac	-0.51238513
159	0xbea6a59a	-0.3254822

sequential/dense/BiasAdd/ReadVariableOp:0 f4 [32]
0	0xbe6b938f	-0.23005508
1	0x3b9f7da2	0.0048672715
2	0xbea4a513	-0.32157192
3	0xbd15aeb2	-0.036543556
4	0xbebdf850	-0.3710351
5	0xbe918a92	-0.28426033
6	0xbef7cc6f	-0.48398158
7	0xbd8e34f8	-0.06943697
8	0xbe0a87f3	-0.13528423
9	0xbed8389c	-0.4223069
10	0xbeb86905	-0.36017624
11	0xbe9b4c99	-0.30331877
12	0xbf043f7f	-0.5165939
13	0xbe96db58	-0.2946422
14	0xbe8a2693	-0.26982555
15	0xbe9d726c	-0.3075136
16	0xbeb75bd6	-0.35812253
17	0xbec750b0	-0.38928747
18	0x3cd3b771	0.025844308
19	0xbe93c6c7	-0.28862593
20	0xbe651d88	-0.22374547
21	0xbd9fffab	-0.07812437
22	0xbdd888b9	-0.10572953
23	0xbeb71980	-0.35761642
24	0xbf061db9	-0.52389103
25	0x3d17eb2a	0.037089504
26	0xbc9394ed	-0.01801535
27	0xb9d1491e	-0.00039918063
28	0xbebefd95	-0.37302843
29	0xbeabad5a	-0.33530694
30	0xbeaa8afc	-0.33309162
31	0xbed18f10	-0.4092946

sequential/batch_normalization_1/batchnorm/sub:0 f4 [32]
0	0xbf1bc066	-0.6084045
1	0x3d396de0	0.0452708
2	0xbea58e1b	-0.3233498
3	0x3e865626	0.262376
4	0xbf025ba5	-0.5092109
5	0xbeb9b1e3	-0.3626853
6	0x3ec163bf	0.37771413
7	0xbd12e338	-0.035861224
8	0x3e531310	0.2061274
9	0xbe44b762	-0.1921058
10	0x3f008da6	0.5021614
11	0x3ee4b25f	0.44667336
12	0x3f106d94	0.564172
13	0x3e34a8a4	0.17642456
14	0xbeb07a79	-0.3446844
15	0x3f16fe3c	0.5898168
16	0xbf020350	-0.50786304
17	0x3edd1b7b	0.43185028
18	0x3f8cb480	1.0992584
19	0x3e498c24	0.19682366
20	0xbf09ccbe	-0.53828037
21	0xbe91d859	-0.28485373
22	0x3db12c8a	0.08651073
23	0x3e326ede	0.17425105
24	0x3c9b3a50	0.018948704
25	0xbe256346	-0.16151151
26	0x3d62f4b0	0.055409133
27	0xbbe39c00	-0.006946087
28	0xbd5f4b90	-0.05451542
29	0x3e6d9bbc	0.23203939
30	0x3efa8cd2	0.48935562
31	0x3ed33e67	0.41258547

sequential/batch_normalization_1/batchnorm/mul:0 f4 [32]
0	0x3f47e570	0.7808447
1	0x3f105ab7	0.5638842
2	0x3f8c53d5	1.0963084
3	0x3f27946c	0.6546085
4	0x3f8bcd66	1.0922058
5	0x3f87fbd0	1.0623722
6	0x3f5d07e4	0.86340165
7	0x3f9a0322	1.2032206
8	0x3f975796	1.1823604
9	0x3f9546ea	1.1662266
10	0x3f7cff03	0.98826617
11	0x3f3fa2cb	0.7485778
12	0x3f109616	0.5647901
13	0x3f81baa1	1.013508
14	0x3fcbc3a9	1.5919086
15	0x3f765b8f	0.9623346
16	0x3fdca8d0	1.7239017
17	0x3f37ad4d	0.7174881
18	0x3f536bf2	0.82586586
19	0x3f777253	0.9665882
20	0x3fa99464	1.324841
21	0x3f411481	0.7542191
22	0x3f6cea04	0.9254458
23	0x3f423114	0.7585614
24	0x3f1ee3d2	0.62066376
25	0x3f5a75dc	0.8533609
26	0x3f9e9a4e	1.239084
27	0x3f7f1088	0.996346
28	0x3f17bb85	0.5927051
29	0x3f5b3cc5	0.856396
30	0x3f1ed0e6	0.62037504
31	0x3f78c7bf	0.9717979

sequential/batch_normalization/batchnorm/sub:0 f4 [32]
0	0xbf2eb95a	-0.68251574
1	0x3e92d622	0.28678995
2	0x3eb5001a	0.3535164
3	0x3e49e458	0.19716012
4	0xbb9f0b80	-0.004853666
5	0x3e3369b1	0.17520787
6	0x3f108ae6	0.5646194
7	0xbe7669fe	-0.2406387
8	0x3e36f64b	0.17867391
9	0xbd2168d0	-0.039406598
10	0x3e9af1e6	0.3026268
11	0xbee550f2	-0.4478832
12	0x3de1041c	0.10987112
13	0x3ea057c7	0.3131697
14	0xbe25dd93	-0.16197805
15	0x3e2764f3	0.16347103
16	0x3f146643	0.5796854
17	0x3ef91db7	0.48655483
18	0xbf469a72	-0.77579415
19	0x3e189b08	0.1490289
20	0x3eff6869	0.49884346
21	0x3e863074	0.26208842
22	0xbddb55b8	-0.10709709
23	0xbdf4cc1c	-0.11952993
24	0x3f04cc46	0.51874197
25	0x3e90b860	0.28265667
26	0xbeab6966	-0.3347885
27	0x3e88c6dc	0.26714218
28	0xbf3aa4a4	-0.7290747
29	0xbf0c25ea	-0.5474535
30	0xbd3eabb8	-0.046550483
31	0x3e90385e	0.28168005

sequential/batch_normalization/batchnorm/mul:0 f4 [32]
0	0x3f629853	0.8851368
1	0x3f94a9de	1.1614339
2	0x3f35b081	0.7097245
3	0x3f3129ca	0.6920439
4	0x3f899b05	1.0750433
5	0x3f7eed9a	0.995813
6	0x3f518434	0.8184235
7	0x3f538cf7	0.8263697
8	0x3f63003e	0.88672245
9	0x3f86275d	1.0480763
10	0x3f2fc203	0.68655413
11	0x3f75db17	0.9603743
12	0x3f6075b3	0.87679595
13	0x3f7d3cf3	0.98921126
14	0x3f981eb0	1.1884365
15	0x3f101781	0.56285864
16	0x3f50f28c	0.816201
17	0x3f884f41	1.0649186
18	0x3f871967	1.0554627
19	0x3f6b2a29	0.91861206
20	0x3f20344a	0.62579787
21	0x3f5d5a4d	0.86465913
22	0x3fc00346	1.5000999
23	0x3f322814	0.69592404
24	0x3fa1b5e8	1.2633638
25	0x3f8d2a01	1.1028444
26	0x3fbf7147	1.4956445
27	0x3f68f479	0.90998036
28	0x3f4b9a08	0.7953191
29	0x3f628a47	0.88492244
30	0x3f8376b8	1.0270605
31	0x3fa04400	1.2520752
